mnist_api/model.tflite (tflite, 230432 bytes, 8 tensors)

arith.constant f4 [32]
00000000: 624e 813c 2ed2 f23d bb3d 38bd 1672 33bc
00000010: 83eb b0bd bd21 38bd db8a 0abd 2ec3 a2bc
00000020: f749 39bd dce3 9cbc 6c92 32bc e121 3bbb
00000030: 2e17 273d 0581 4cbc 400c 0f3c ac8f 95bd
00000040: 0d93 96ba fff7 b3bd 913c bdbd 3e32 2cbc
00000050: 216e 51bb 7019 383a 9976 0dbc eea7 2b3d
00000060: 0239 903b 33ed 503d 8251 64bd 934a 26bb
00000070: 865a 853c 0a26 b5bc 09cc a9ba 7b03 bcbd
0.015784446 0.11856495 -0.044980746 -0.010952493 -0.0863867 -0.04495405 -0.03382383 -0.01986846
-0.045236554 -0.01915162 -0.0108991675 -0.002855413 0.04079359 -0.0124819325 0.008730948 -0.07302794
-0.0011487916 -0.08787536 -0.09240068 -0.010510026 -0.003195651 0.00070228335 -0.008634233 0.041908197
0.004401327 0.05100746 -0.055741794 -0.002537404 0.016278517 -0.022112865 -0.0012954484 -0.09180351

arith.constant1 f4 [32, 3, 3, 1]
00000000: 1132 7a3e 75db de3d a630 093e 2a67 973c
00000010: 2c70 473d 30a4 f63d 6a52 88be 032e 6abe
00000020: 42b3 1cbe f4a5 e53d ca68 6f3e 4f63 a83d
00000030: cc2a 0ebe 00c5 403d aa1f 45be 9c1b adbe
00000040: f018 d7be 7ef0 aabe 420b bf3c 35b9 003e
00000050: e55a 02bd 9135 f33d aff1 8bbd 407d 143e
00000060: 6678 733d a571 d13d be1d 443d 8d78 473e
00000070: 1f20 cf3d 769b 963d 4f97 393e 29ff 2dbd
00000080: 6142 8fbd 8da4 18be 8d84 88be 3b0c d1bd
00000090: 8832 f93d e6ca a8bc 7030 8a3d 7d29 4c3d
000000a0: b89a 33bd e65c 223d b34a 043e 7187 bc3d
000000b0: 818e 3e39 96fb 943d 1970 c93d b809 8ebc
000000c0: 2759 0cbd 8584 303e 4f72 073e a995 6bbe
000000d0: 420f fc3d 7cb2 fa3d 0513 2a3d 2f55 82bd
000000e0: 257b 233d 9891 ce3d e9ef 4c3e 2548 cd3d
000000f0: ec7b 5e3d 5669 ed3d 4fa1 933d 81d7 bd3c
00000100: 88ff 383e 369b 023e 3aac b1bc e3f3 74bd
00000110: fac1 d53d cbd9 abbe 6a92 30be 5fae 113e
00000120: 8454 893c cad4 b73b 7633 39be 3930 303e
00000130: 70cd a93d a824 26be fa7d 9ebd 6d2d 2c3e
00000140: 459b dd3d 218d 1bbe c4cf 80be aa50 0abd
00000150: 8eb8 96be d1b7 83bd 34cc 6a3e 3af3 e33d
00000160: 44c1 813e d90a 473e 9e98 723e 85b1 103e
00000170: ff2f c73d 0e95 503c 832b 313b e3c1 cfbc
00000180: 324e ca3c 66d9 4dbe 0cdc 9fbe ce27 173e
00000190: ff29 893e f01c 6b3e 8a38 3cbe 0c6c 08bd
000001a0: d346 c73d c491 58be 7b78 8ebe 3d75 82bd
000001b0: d939 a33d 0ca6 373e 22d5 403e 17e6 34be
000001c0: 24c4 06be 49c5 7abd 42da 33be 4e24 35be
000001d0: f73c 41be 1d75 29be bc64 503e 1d2d c03d
000001e0: 7485 ccbe 6609 e03d 8b63 413e 1591 7dbe
000001f0: 08a2 c4bd b52a 0d3e 167e d23d a7cf 2d3e
00000200: 4f6e 563e 349d 713d a83a 193e 31c1 31bc
00000210: d541 44be de6b aabe 6356 d8bd 0bcd 14be
00000220: 723c fe3d 2517 003e c5d0 033d b2eb 5d3e
00000230: edb6 0bbd b4c9 053e c7da c83c eb96 bdbd
00000240: b9da 083e d1bb 75bc 18ef b9be fd94 903e
00000250: 6ddc 683c 062c b0be 4410 e83d 4109 8d3e
00000260: f70f debd af99 013d e033 48be 13bb c53c
00000270: 5d87 343e 5d0e b7bc 0131 8d3d bcae 5a3d
00000280: 5c73 933d 8405 e43a 618f c83d 57b1 d43d
00000290: b0f2 173b 4f52 e33c 21d3 a9bd 9782 e13d
000002a0: 97d9 913d 01a2 e1bc 9653 ad3d 8103 40bd
000002b0: 2331 6bbe 1233 85be 11ed 133e e4fb 9f3d
000002c0: a493 923d 7f41 a0bc 2a17 513e 31e8 c83d
000002d0: e004 5f3e 2410 983e d0d8 403d e750 5f3e
000002e0: 823f 0abe 0f91 b1be 5838 cabd c336 a7be
000002f0: e120 ae3d e2fe 42be 9f14 debd 89d9 36be
00000300: b8d3 77bd d0aa 42be d70b 2a3d 8b53 7d3e
00000310: 4f49 793e 401c aa3d f5a5 e7bb 82f8 2b3d
00000320: 4581 5e3e 2060 91bc 2bce 49bd e543 a83e
00000330: e523 69be 5dc3 9bbe f3c2 a2bd 8afc 673e
00000340: 88f6 06bc 6329 34be e05f 393e 8d0b a5bc
00000350: 3408 62be 951e 213e e4bf d0bd 1e0c d8be
00000360: b406 3cbe 2bab 98be 1ab5 8b3d bc00 c7be
00000370: aafd 1fbc 5fc2 723e a173 13be ec3d 743e
00000380: 16d0 823e 7e12 84be c006 d5bd 70cb e33c
00000390: 2b86 b0be c66c 0ebd b6f7 2a3e 99b4 a5be
000003a0: 32f2 25ba 19c4 5e3e dfd7 a83d 52e5 3d3d
000003b0: 3f42 343d 3198 44bd 3e27 b83d 16e9 12bd
000003c0: bd2f 163d 4621 de3d 098e 2bbe 1f36 e33d
000003d0: 12c8 123e 53e4 713d ba47 053e 12d4 303e
000003e0: b05f d13d 1364 73be 0cee b5be 4056 0abe
000003f0: dc1e 5dbe f194 5bbe 2b84 53be 497e 043d
0.24433161 0.10881702 0.13397464 0.01848181 0.04869096 0.12043035 -0.26625377 -0.22869115
-0.15302756 0.11213294 0.23379818 0.082220666 -0.13883513 0.047062874 -0.1925036 -0.33810127
-0.42011213 -0.33386606 0.023320798 0.12570651 -0.031824965 0.11875451 -0.06833207 0.14500904
0.059440993 0.10226754 0.047879927 0.1947958 0.101135485 0.073538706 0.18124126 -0.042479668
-0.06995083 -0.14906521 -0.26663628 -0.10207411 0.12167841 -0.020604562 0.0674752 0.049844254
-0.043848723 0.039639376 0.1291912 0.09205521 0.00018172899 0.07274549 0.09835834 -0.017338619
-0.03426471 0.17238052 0.13227199 -0.2300631 0.12307598 0.122410744 0.041522045 -0.06363904
0.03991236 0.100863636 0.20013393 0.10023526 0.0543174 0.11592357 0.072085015 0.02317405
0.18066227 0.12754521 -0.02168857 -0.0598029 0.10437389 -0.335646 -0.17243353 0.14226674
0.016763933 0.005610083 -0.18086037 0.17205895 0.08291137 -0.16224921 -0.07738872 0.16814204
0.10820631 -0.15190555 -0.25158513 -0.033768333 -0.2943768 -0.064315446 0.2292946 0.11130376
0.25342762 0.19437732 0.23691031 0.14130218 0.097259514 0.01273085 0.0027033992 -0.025361007
0.02469549 -0.20102462 -0.3122257 0.14761278 0.26789853 0.22960258 -0.18380943 -0.033306167
0.097303055 -0.21149355 -0.27826294 -0.06370018 0.07970018 0.17934436 0.18831304 -0.17665897
-0.13160759 -0.061223302 -0.17563727 -0.1768963 -0.18870912 -0.16548581 0.20350927 0.09383605
-0.39945567 0.109392926 0.18885629 -0.24762376 -0.096012175 0.13785823 0.10277955 0.16973744
0.20940517 0.05898781 0.14963782 -0.010849283 -0.19165738 -0.3328542 -0.10563352 -0.14531343
0.12413873 0.12508829 0.03218152 0.21671942 -0.03411 0.13065225 0.024518384 -0.09257301
0.13364686 -0.014998392 -0.36315227 0.2823867 0.01421271 -0.34408587 0.113312274 0.27546123
-0.10842889 0.031640705 -0.19551039 0.024137056 0.17629762 -0.022345716 0.068941124 0.053389296
0.071997374 0.0017396663 0.09792972 0.103853874 0.0023185425 0.027749209 -0.08292223 0.11011236
0.0712158 -0.02754307 0.084632084 -0.04687834 -0.22967963 -0.26015526 0.14445902 0.07811716
0.071570665 -0.019562481 0.20418993 0.09809912 0.21779203 0.29699814 0.04708177 0.21808206
-0.13500789 -0.34680983 -0.09874028 -0.32658967 0.08502365 -0.19042543 -0.10843777 -0.1785642
-0.060504645 -0.19010472 0.041515198 0.247389 0.24344371 0.083061695 -0.007069344 0.041985042
0.21729 -0.017746031 -0.049268883 0.328643 -0.22767599 -0.30422488 -0.0794734 0.2265493
-0.008237489 -0.17593913 0.1810298 -0.02014711 -0.22073442 0.15734322 -0.1019285 -0.42196745
-0.18361932 -0.2981809 0.06821652 -0.38867748 -0.009765068 0.23706959 -0.14399578 0.23851746
0.25549382 -0.25795358 -0.10401678 0.027806967 -0.34477362 -0.034771703 0.16696057 -0.32364348
-0.00063303404 0.21754493 0.08244299 0.046361275 0.04400849 -0.047996704 0.0899186 -0.03586682
0.03666662 0.1084619 -0.16753401 0.11094307 0.14334133 0.059055638 0.13015643 0.17268398
0.10223329 -0.23768644 -0.35533178 -0.13509464 -0.21593803 -0.21443535 -0.20655887 0.032346997

arith.constant2 f4 [128]
00000000: 2380 6a3c 0013 d0bc 086d 253c b0a2 aab8
00000010: 734f d2ba d34c 6b3c cb61 cf3c 1093 d53a
00000020: 4312 99bc 5a58 a63c 3b31 8fbb e7ad e63b
00000030: 0a27 d0bb d2a1 083d e06e 7e3c 4f0a 1cbb
00000040: 1931 53bc 113c 423c 4907 dabb 626d f93b
00000050: 4d71 c5bb 9aad 1fbd b8be 9fbc 983d bfbb
00000060: 1539 0c3d 3b9f 08bb 5026 213d 3edb 013d
00000070: 4355 d0ba dd9d 973c d2f5 58bc 83ef 10bc
00000080: 495d 033d f661 433c bd65 8d3c 2dbe 33bc
00000090: 4185 673c f3a0 8b3b ca90 18bc eff6 ffbb
000000a0: 16c0 683c 0514 6bbd 6b6c 05bb 0303 523a
000000b0: 34ed 2dbc ce48 82bc b3c7 e83c 9086 14bc
000000c0: 1cfb 2c3c 2e14 8b3c 4c1d 7bbc 93ba 443d
000000d0: cdb9 8dbc ef9f 18bc 8c32 343c fd07 f03c
000000e0: 626a 84bc 826b 7cbc a99f 65bc 2bf2 5dbd
000000f0: 4400 f1bb 3eb4 d0bb e2b0 313c 6082 953c
00000100: 916d febb 2b22 a53c 0d47 5fbc 72e7 b03a
00000110: 9951 413c 42e1 6abb 13bf 37bc 252d 993c
00000120: 5d8a d93a dc5a 06bc 57e3 16bc cd0e 7a3c
00000130: 25d2 1e3b 26a1 79bc 72cb 94bb 20e2 8b3c
00000140: 392c 4d3c 3df2 fa3c eb9b 0e3b 1474 e1bc
00000150: 88b8 283c ee20 a1ba 095d 29bc 1bf0 f83c
00000160: 8730 623c 4ca5 b9bc 6ddb fcbb 8513 f6bb
00000170: 4d49 e93b 9f60 e53c c919 d23b 8634 60bc
00000180: a74b ae3c 8a70 13bd e215 383c 552a 08bc
00000190: 169b c6ba 582a 253c 3a6a 84bc 6a42 cdbc
000001a0: 92d0 ebbb 9923 09bc 1285 0cbc 7750 873c
000001b0: 6e85 fe3a d180 c93c 89b2 8d3c 7210 fbbb
000001c0: 77c3 22bc 0634 deba 9792 543b 7cfb e8bb
000001d0: bd75 083d 8164 983c f5da 01bd 5b39 c439
000001e0: 77a1 04bd 2abd 95bc 9d7c 903c b9f0 e73c
000001f0: e4a9 63bc 29c8 0fbc b2d7 f73a 9491 03bc
0.014312777 -0.025399685 0.010096796 -8.1365346e-05 -0.0016045406 0.014361578 0.025315186 0.0016294438
-0.018685466 0.020305801 -0.0043698824 0.0070397737 -0.00635231 0.03335745 0.015529364 -0.0023809855
-0.012890124 0.011855141 -0.0066537005 0.0076119164 -0.0060254694 -0.03898392 -0.019500121 -0.0058362
0.034234125 -0.0020846862 0.03934318 0.031703226 -0.0015894551 0.018507892 -0.013242202 -0.008846167
0.032071386 0.011925211 0.017260427 -0.010970634 0.014130891 0.00426113 -0.009311864 -0.007811419
0.014205953 -0.05739214 -0.0020358812 0.0008011313 -0.010615636 -0.015903857 0.028415537 -0.009065285
0.010557916 0.016977396 -0.015326809 0.048029494 -0.01730051 -0.009315475 0.010998379 0.029300684
-0.016164009 -0.015406491 -0.014015117 -0.054186027 -0.007354768 -0.006369143 0.010845395 0.018250644
-0.007764526 0.020157894 -0.01362778 0.001349671 0.01179924 -0.003583983 -0.011214989 0.018698284
0.0016597022 -0.0082003735 -0.0092094755 0.015262318 0.0024234143 -0.015236175 -0.004540854 0.017075598
0.0125227505 0.030633086 0.0021760415 -0.02752117 0.010297902 -0.0012293139 -0.010337123 0.030387929
0.013805515 -0.022661828 -0.0077165873 -0.007509651 0.007119334 0.028000174 0.0064117652 -0.013684398
0.021276308 -0.035995997 0.011235686 -0.008310874 -0.001515242 0.010080896 -0.016163934 -0.025056083
-0.0071964944 -0.008370304 -0.008576648 0.01651786 0.0019418427 0.024597557 0.017297046 -0.0076618725
-0.009934298 -0.001695276 0.0032436007 -0.0071100574 0.03331541 0.018602611 -0.031702954 0.00037426766
-0.032380547 -0.018278677 0.017637545 0.028313028 -0.013895486 -0.008775749 0.0018908887 -0.008030314

arith.constant3 f4 [10]
00000000: e2a3 9c3c e81a 193d d47b 2abb c14d 1ebc
00000010: 82d3 ca39 aeea 13bc 940d 993b ad23 8abc
00000020: bc30 163b c295 d6bb
0.019121114 0.037379175 -0.0026013749 -0.009662093 0.00038686028 -0.00902812 0.004670808 -0.016862715
0.0022917232 -0.0065486142

arith.constant5 f4 [64]
00000000: 2614 0fbc bd60 60bd 74a5 a2bc 6ff6 fd3b
00000010: 8834 7dbd e21c e9bc bc8c 2fbc 9d6d 50bd
00000020: 1a24 913b e581 c2bc 5571 be3b 1c3e 07bc
00000030: cf8e 7ebc ba59 28bd 49b8 18bd 9dca 94bd
00000040: 14da fcbc 62b8 0abd 116f 70bd f120 cfba
00000050: 97f3 12bd 599a 16bd 90f4 aebc cd76 c0bc
00000060: b67c 62bc 40bb 4bbd 5db7 4abc d61e 8a3b
00000070: 640d d1bc c6dd 4cbc 5dfc b43c 7521 b3bc
00000080: e6bd 31bd 29b7 67bc 1c00 37bd 7a67 8fbd
00000090: 6d8c 49bd 3e99 c03c 9c4a 803b a1e2 d4bd
000000a0: 41a1 8cbc 2f6b d6bc b9d3 05bd be03 8cbd
000000b0: 7421 27bd 1c3d 63bd 43f0 57bd 6c20 55bd
000000c0: d922 2dbd ec4f f7bb 69cb 9ebc fab5 0d3d
000000d0: 7a64 8c3a c2fa 5dbd c976 b5bd a9f2 5dbd
000000e0: 1f8c debc f782 c7bc b318 813c e8ec 38bd
000000f0: 841b acbc bde7 3ebd 82e4 16bd b040 c7bd
-0.008732831 -0.054779757 -0.019854285 0.0077503244 -0.061817676 -0.028456155 -0.010714706 -0.050885785
0.0044293525 -0.02374358 0.00581185 -0.008254554 -0.015536978 -0.041101195 -0.037285123 -0.07265208
-0.030865707 -0.033867247 -0.05869967 -0.0015802664 -0.035876837 -0.03676829 -0.02135685 -0.023494149
-0.013823679 -0.049739122 -0.012372819 0.0042151017 -0.02551908 -0.012504047 0.022092992 -0.02186654
-0.043393992 -0.01414279 -0.04467784 -0.070021585 -0.049206186 0.023510572 0.003915144 -0.103947885
-0.017166736 -0.026174156 -0.032672618 -0.06836651 -0.040803388 -0.0554782 -0.052719366 -0.052032873
-0.04226956 -0.007547369 -0.019384103 0.034597374 0.0010711097 -0.05419422 -0.08860547 -0.054186497
-0.027166424 -0.024354441 0.015758848 -0.045147806 -0.021009214 -0.04660772 -0.036839016 -0.09729135

tfl.pseudo_qconst i1 [64, 3, 3, 32]
00000000: e6db ddd6 e5e2 cbe8 d30d f7d4 c116 c5bb
00000010: 0fe5 e1f7 ea1c 1f16 1e0e bdd9 1fe9 f7f3
00000020: b6ee 1dba 172f 0733 cc11 b5d1 b01f c903
00000030: a604 f0e0 c3e6 1ee1 302d efc9 f022 ef1c
00000040: 939c 13dd 1c2b 19de eb13 ec93 8628 8103
00000050: 1907 2cf3 ecdb e41b 260e 0ba3 c534 f72f
00000060: 2f02 e700 02e3 0b03 102f 0c1e dbfe 08e5
00000070: 23ee fa12 1719 5002 1314 e130 291f 1100
00000080: d1e7 22e7 160c 0d33 f313 cd0c cffa ddf1
00000090: bef8 1f1c d9e0 14e7 00fb ecf5 e503 e806
000000a0: c5b3 17f0 ec15 2802 09f6 dfe3 bdf9 d40d
000000b0: 07f1 1e01 05bb ce05 05f5 1eb3 cf1c e6ff
000000c0: 4432 e822 ddd9 e72b cc04 1b38 38f9 12c0
000000d0: 00fb efeb 18c9 1214 f618 e70c c8d8 ece0
000000e0: edee 17c5 180d 1400 db1a d803 eb13 011a
000000f0: bf0b 19cb b2bb 04bd ef05 05ce dcf8 a604
-26 -37 -35 -42 -27 -30 -53 -24
-45 13 -9 -44 -63 22 -59 -69
15 -27 -31 -9 -22 28 31 22
30 14 -67 -39 31 -23 -9 -13
-74 -18 29 -70 23 47 7 51
-52 17 -75 -47 -80 31 -55 3
-90 4 -16 -32 -61 -26 30 -31
48 45 -17 -55 -16 34 -17 28
-109 -100 19 -35 28 43 25 -34
-21 19 -20 -109 -122 40 -127 3
25 7 44 -13 -20 -37 -28 27
38 14 11 -93 -59 52 -9 47
47 2 -25 0 2 -29 11 3
16 47 12 30 -37 -2 8 -27
35 -18 -6 18 23 25 80 2
19 20 -31 48 41 31 17 0
-47 -25 34 -25 22 12 13 51
-13 19 -51 12 -49 -6 -35 -15
-66 -8 31 28 -39 -32 20 -25
0 -5 -20 -11 -27 3 -24 6
-59 -77 23 -16 -20 21 40 2
9 -10 -33 -29 -67 -7 -44 13
7 -15 30 1 5 -69 -50 5
5 -11 30 -77 -49 28 -26 -1
68 50 -24 34 -35 -39 -25 43
-52 4 27 56 56 -7 18 -64
0 -5 -17 -21 24 -55 18 20
-10 24 -25 12 -56 -40 -20 -32
-19 -18 23 -59 24 13 20 0
-37 26 -40 3 -21 19 1 26
-65 11 25 -53 -78 -69 4 -67
-17 5 5 -50 -36 -8 -90 4

tfl.pseudo_qconst1 i1 [10, 128] scale=0.0032434806 zero_point=0
00000000: 14fa b4d8 3538 363e 3329 ec16 0845 10b6
00000010: 21e3 d41d e1aa 32c4 4908 4d51 1119 c700
00000020: 3340 a8ea 8abf 14c6 9eeb 04c0 cec9 a60c
00000030: dbe7 f8bf ccf5 ad40 1216 ecf5 d611 14ee
00000040: cb0f 2108 0c09 da15 1dc6 2920 4eed fec1
00000050: c938 aa1e 9436 01d8 dbe5 c523 dd2b 42ff
00000060: e305 ff28 111d 33cf fa19 3dc3 ae05 2312
00000070: 220c ff0a 3230 c317 1fe7 ffe4 af1a cec6
00000080: 07b2 2422 b212 d800 e62d f304 e636 3af6
00000090: 37d3 c7b5 d8da f0eb 52f4 7348 ea3f 1227
000000a0: 33e4 1bd1 fe12 1def 351a e308 01ce 4ac9
000000b0: 07ef d34b c3e0 3926 19b5 a82e c000 ed33
000000c0: 1b0b d6e5 16b7 3be2 fde4 b738 cebf 251f
000000d0: 2128 fd0b 23c0 1b2c 0a12 2002 053f dde3
000000e0: 1c0b 24ef b7de 06f6 fc2c 1c2a e52b bccf
000000f0: e6cc f506 131d ebd1 0338 203c e511 dcd5
0.06486961 -0.019460883 -0.24650453 -0.12973922 0.17190447 0.18163492 0.17514795 0.20109579
0.1654175 0.1329827 -0.06486961 0.07135657 0.025947845 0.22380015 0.05189569 -0.24001756
0.10703486 -0.094060935 -0.14271314 0.094060935 -0.100547895 -0.27893934 0.16217403 -0.19460884
0.23677409 0.025947845 0.249748 0.26272193 0.05513917 0.081087016 -0.1848784 0.0
0.1654175 0.20758276 -0.2854263 -0.07135657 -0.38273072 -0.21082623 0.06486961 -0.18812187
-0.3178611 -0.06811309 0.012973922 -0.20758276 -0.16217403 -0.17839143 -0.29191324 0.038921766
-0.12000878 -0.081087016 -0.025947845 -0.21082623 -0.16866098 -0.035678286 -0.26920888 0.20758276
0.05838265 0.07135657 -0.06486961 -0.035678286 -0.13622618 0.05513917 0.06486961 -0.05838265
-0.17190447 0.04865221 0.10703486 0.025947845 0.038921766 0.029191324 -0.123252265 0.06811309
0.094060935 -0.18812187 0.1329827 0.10379138 0.2529915 -0.061626133 -0.006486961 -0.20433928
-0.17839143 0.18163492 -0.27893934 0.09730442 -0.3502959 0.17514795 0.0032434806 -0.12973922
-0.12000878 -0.087573975 -0.19136536 0.11352182 -0.11352182 0.13946967 0.21406972 -0.0032434806
-0.094060935 0.016217403 -0.0032434806 0.12973922 0.05513917 0.094060935 0.1654175 -0.15893055
-0.019460883 0.081087016 0.19785231 -0.19785231 -0.2659654 0.016217403 0.11352182 0.05838265
0.11027834 0.038921766 -0.0032434806 0.032434806 0.16217403 0.15568706 -0.19785231 0.074600056
0.100547895 -0.081087016 -0.0032434806 -0.09081746 -0.26272193 0.08433049 -0.16217403 -0.18812187
0.022704365 -0.2529915 0.1167653 0.11027834 -0.2529915 0.05838265 -0.12973922 0.0
-0.08433049 0.14595662 -0.042165246 0.012973922 -0.08433049 0.17514795 0.18812187 -0.032434806
0.17839143 -0.14595662 -0.1848784 -0.24326104 -0.12973922 -0.123252265 -0.05189569 -0.06811309
0.2659654 -0.038921766 0.37300026 0.2335306 -0.07135657 0.20433928 0.05838265 0.12649575
0.1654175 -0.09081746 0.087573975 -0.15244359 -0.006486961 0.05838265 0.094060935 -0.05513917
0.17190447 0.08433049 -0.094060935 0.025947845 0.0032434806 -0.16217403 0.24001756 -0.17839143
0.022704365 -0.05513917 -0.14595662 0.24326104 -0.19785231 -0.10379138 0.1848784 0.123252265
0.081087016 -0.24326104 -0.2854263 0.14920011 -0.20758276 0.0 -0.061626133 0.1654175
0.087573975 0.035678286 -0.13622618 -0.087573975 0.07135657 -0.23677409 0.19136536 -0.09730442
-0.0097304415 -0.09081746 -0.23677409 0.18163492 -0.16217403 -0.21082623 0.12000878 0.100547895
0.10703486 0.12973922 -0.0097304415 0.035678286 0.11352182 -0.20758276 0.087573975 0.14271314
0.032434806 0.05838265 0.10379138 0.006486961 0.016217403 0.20433928 -0.11352182 -0.094060935
0.09081746 0.035678286 0.1167653 -0.05513917 -0.23677409 -0.11027834 0.019460883 -0.032434806
-0.012973922 0.14271314 0.09081746 0.13622618 -0.087573975 0.13946967 -0.22055668 -0.15893055
-0.08433049 -0.16866098 -0.035678286 0.019460883 0.061626133 0.094060935 -0.06811309 -0.15244359
0.0097304415 0.18163492 0.10379138 0.19460884 -0.087573975 0.05513917 -0.1167653 -0.13946967

tfl.pseudo_qconst2 i1 [128, 1600] scale=0.0033231624 zero_point=0
00000000: 0411 08f0 f110 f30d 02ea fc04 030f fb03
00000010: f3ea 0104 171d fffd f314 07fd ef1e eceb
00000020: 1ef5 fdfd e8ff 1fdf 07fd 14f8 ef26 ff0d
00000030: 03f1 15ff f9dc 08f3 f2db fa16 0f26 f402
00000040: f5f2 0013 eff5 f50d 0bed e2d7 f5fa f7f6
00000050: fefb f3fc fdec d7fe fff6 d31b 0208 1708
00000060: 0ed6 eae7 de0f 25e8 fc1d f5ee f0d9 0110
00000070: fd00 3624 13e3 eddf f1ef 2ffd f60c f0f1
00000080: ffea f224 02ff ff0e fc0d eaee f90e fcfd
00000090: e704 13e0 f5e2 0001 de08 f605 19f6 2248
000000a0: 03f0 05ef e320 f9de 2705 0dec f4ea f51a
000000b0: f3ee 2704 14e7 f2c4 edf5 30ee e4fd d5f3
000000c0: 1504 f637 e90c 22f3 1e0b e601 e1e2 1a07
000000d0: 04f5 10eb fadb e4f9 f207 0e0a 2efe f918
000000e0: eedf 1bf1 eb19 08e3 0ee2 deee eeff e8f6
000000f0: df09 1fe9 12fc 010e ecfb 080d 0003 eef8
0.01329265 0.056493763 0.0265853 -0.0531706 -0.049847435 0.0531706 -0.04320111 0.04320111
0.006646325 -0.073109575 -0.01329265 0.01329265 0.009969488 0.049847435 -0.016615812 0.009969488
-0.04320111 -0.073109575 0.0033231624 0.01329265 0.076432735 0.09637171 -0.0033231624 -0.009969488
-0.04320111 0.06646325 0.023262138 -0.009969488 -0.056493763 0.09969487 -0.06646325 -0.069786415
0.09969487 -0.036554787 -0.009969488 -0.009969488 -0.0797559 -0.0033231624 0.10301804 -0.10966436
0.023262138 -0.009969488 0.06646325 -0.0265853 -0.056493763 0.12628017 -0.0033231624 0.04320111
0.009969488 -0.049847435 0.069786415 -0.0033231624 -0.023262138 -0.119633846 0.0265853 -0.04320111
-0.046524275 -0.12295701 -0.019938976 0.073109575 0.049847435 0.12628017 -0.03987795 0.006646325
-0.036554787 -0.046524275 0.0 0.06314009 -0.056493763 -0.036554787 -0.036554787 0.04320111
0.036554787 -0.06314009 -0.09969487 -0.13624966 -0.036554787 -0.019938976 -0.029908461 -0.033231623
-0.006646325 -0.016615812 -0.04320111 -0.01329265 -0.009969488 -0.06646325 -0.13624966 -0.006646325
-0.0033231624 -0.033231623 -0.14954232 0.08972538 0.006646325 0.0265853 0.076432735 0.0265853
0.046524275 -0.13957283 -0.073109575 -0.08307906 -0.112987526 0.049847435 0.12295701 -0.0797559
-0.01329265 0.09637171 -0.036554787 -0.059816923 -0.0531706 -0.12960334 0.0033231624 0.0531706
-0.009969488 0.0 0.17945077 0.119633846 0.06314009 -0.09637171 -0.06314009 -0.10966436
-0.049847435 -0.056493763 0.15618864 -0.009969488 -0.033231623 0.03987795 -0.0531706 -0.049847435
-0.0033231624 -0.073109575 -0.046524275 0.119633846 0.006646325 -0.0033231624 -0.0033231624 0.046524275
-0.01329265 0.04320111 -0.073109575 -0.059816923 -0.023262138 0.046524275 -0.01329265 -0.009969488
-0.08307906 0.01329265 0.06314009 -0.1063412 -0.036554787 -0.09969487 0.0 0.0033231624
-0.112987526 0.0265853 -0.033231623 0.016615812 0.08307906 -0.033231623 0.112987526 0.23926769
0.009969488 -0.0531706 0.016615812 -0.056493763 -0.09637171 0.1063412 -0.023262138 -0.112987526
0.12960334 0.016615812 0.04320111 -0.06646325 -0.03987795 -0.073109575 -0.036554787 0.08640222
-0.04320111 -0.059816923 0.12960334 0.01329265 0.06646325 -0.08307906 -0.046524275 -0.19938974
-0.06314009 -0.036554787 0.1595118 -0.059816923 -0.09304855 -0.009969488 -0.14289598 -0.04320111
0.069786415 0.01329265 -0.033231623 0.18277393 -0.076432735 0.03987795 0.112987526 -0.04320111
0.09969487 0.036554787 -0.08640222 0.0033231624 -0.10301804 -0.09969487 0.08640222 0.023262138
0.01329265 -0.036554787 0.0531706 -0.069786415 -0.019938976 -0.12295701 -0.09304855 -0.023262138
-0.046524275 0.023262138 0.046524275 0.033231623 0.15286547 -0.006646325 -0.023262138 0.0797559
-0.059816923 -0.10966436 0.08972538 -0.049847435 -0.069786415 0.08307906 0.0265853 -0.09637171
0.046524275 -0.09969487 -0.112987526 -0.059816923 -0.059816923 -0.0033231624 -0.0797559 -0.033231623
-0.10966436 0.029908461 0.10301804 -0.076432735 0.059816923 -0.01329265 0.0033231624 0.046524275
-0.06646325 -0.016615812 0.0265853 0.04320111 0.0 0.009969488 -0.059816923 -0.0265853
